model/SIGANEO-GAN.pt (torch, 14991 bytes, 8 tensors)

encoder.0.weight f4 [32, 15]
0	0x401c46e9	2.441828
1	0xbec1ab97	-0.37826225
2	0xbd991f4d	-0.07476673
3	0x3e8175fa	0.2528532
4	0x3d0a5e9c	0.033781633
5	0x3c91d336	0.017800909
6	0xbbab02d1	-0.0052188416
7	0xbd74f8fd	-0.059807766
8	0xbc7787ee	-0.015108092
9	0xbd29fa53	-0.041498493
10	0x3d2a3ab6	0.041559897
11	0xbd149597	-0.036275472
12	0x3c7c16ce	0.015386296
13	0x3d0292ac	0.03187816
14	0x3daf9c9e	0.08574794
15	0x3f802ac0	1.0013046
16	0xc000c04b	-2.0117366
17	0x3dd48e4d	0.10378704
18	0x3f865b2d	1.0496575
19	0xbdea275b	-0.11433288
20	0xbd085d0d	-0.033291865
21	0x3a76a28a	0.00094083755
22	0x3d9d6a47	0.076862864
23	0x3c94e3c7	0.018175019
24	0x3dd9909a	0.10623284
25	0xbd955618	-0.07291812
26	0x3ca23956	0.01980273
27	0xbbfc6380	-0.007702291
28	0x3c8354bc	0.016031615
29	0xbe884ad2	-0.26619583
30	0x3fdc15af	1.7194117
31	0x3dcc28cb	0.09968718
32	0x3d85dd56	0.06536357
33	0xbfe96f54	-1.82371
34	0xbb99df52	-0.0046958113
35	0x3cbf2a06	0.023335468
36	0xbc78f798	-0.01519575
37	0xbd53929e	-0.051653497
38	0x3d11ac68	0.03556481
39	0x3d74c01e	0.05975353
40	0xbda006b3	-0.07813778
41	0xbddb87f4	-0.107192904
42	0x3db634f3	0.08896818
43	0x3bfca0b4	0.007709587
44	0x3d0a5c00	0.033779144
45	0x3e5e3e1f	0.21703385
46	0xbdcd0463	-0.10010602
47	0x3cd7bff6	0.026336651
48	0xbf15ed07	-0.585648
49	0xbc315871	-0.010824309
50	0xbd508feb	-0.0509185
51	0xbc945c90	-0.018110543
52	0xbca95a87	-0.02067305
53	0xbc3109b6	-0.010805538
54	0x3d6722cd	0.056429673
55	0xbd07942f	-0.033100303
56	0x3d6f6c85	0.0584531
57	0x3e10b988	0.14133275
58	0x3dae9520	0.08524537
59	0x3dd30757	0.10304134
60	0x3dcddcc6	0.10051875
61	0xbc835fd4	-0.016036905
62	0xbdcc8544	-0.09986356
63	0x3edd423a	0.4321459
64	0xbd5209f5	-0.051279027
65	0x3d22ae05	0.03971674
66	0xb945e65d	-0.00018873201
67	0xbd269bce	-0.04067593
68	0xbd07aabd	-0.033121813
69	0xbd8a7379	-0.06760306
70	0x3d54f6b5	0.05199309
71	0xbcc97579	-0.024592148
72	0xbda275bd	-0.07932613
73	0xbcf38012	-0.029724155
74	0x3c81d098	0.015846536
75	0xbbc137a1	-0.005896524
76	0x403def7c	2.967742
77	0x3c323ba1	0.010878474
78	0x3da0ab1c	0.078451365
79	0xbc23a83d	-0.009988842
80	0x3c806e59	0.015677618
81	0xba7d572e	-0.0009664175
82	0x3d418c21	0.047252778
83	0x3d0503ce	0.03247433
84	0x3d082c9c	0.033245668
85	0xbc8c2bda	-0.017110754
86	0xbd14935d	-0.03627335
87	0x3c9d22e4	0.019181676
88	0xbc157cdb	-0.009124006
89	0xbce1fa9f	-0.027585326
90	0xbd82c478	-0.0638513
91	0xbf9fb76c	-1.2477851
92	0xbe4eeac4	-0.20206743
93	0xbdb0e256	-0.0863692
94	0x3d3b9f52	0.045806237
95	0x3d05b833	0.03264637
96	0xbe60ee87	-0.21965991
97	0xbe4b738a	-0.19868293
98	0xbdb6152b	-0.08890756
99	0x3d1ea2aa	0.038729347
100	0x3d8515ee	0.064983234
101	0xbda0a4cb	-0.07843932
102	0x3d849a2f	0.06474721
103	0xbdf27ae6	-0.11839847
104	0x3dc4546c	0.09586415
105	0x3e197f21	0.14989902
106	0x3d636271	0.055513803
107	0x3b80b9e2	0.003928409
108	0x3e80f3d0	0.25186014
109	0x3c3651b7	0.011127881
110	0x3cbd57f0	0.02311322
111	0xbcdb8968	-0.026798919
112	0x3d5b8f7d	0.053603638
113	0xbc74494c	-0.014910053
114	0x3d1d411c	0.03839217
115	0x3d0f936b	0.035052698
116	0xba925afc	-0.0011166031
117	0x3d0ade15	0.0339032
118	0x3bc24060	0.0059280843
119	0xbe8f7228	-0.28016782
120	0xbfe26895	-1.7688166
121	0xbdb30459	-0.087410636
122	0xbcfe92c4	-0.031075843
123	0xbe4dec88	-0.20109761
124	0x3cad5572	0.021158908
125	0x3c900680	0.017581224
126	0xbd84b1af	-0.06479203
127	0xbd334f43	-0.04377676
128	0xbdaac956	-0.08339183
129	0x3c45c7b3	0.012071538
130	0x3cd9e88a	0.026600141
131	0xbd20eff0	-0.039291322
132	0xbd0d9da4	-0.034574166
133	0xbaa535ef	-0.0012604574
134	0x3ca7a1af	0.020462839
135	0x3d665deb	0.05624191
136	0xbe0b0bdf	-0.13578747
137	0x3e8ea322	0.27858835
138	0xbca7e3d8	-0.020494387
139	0xbdefa312	-0.11701025
140	0xbe0471e1	-0.12934066
141	0x3d01f72b	0.03172986
142	0x3ca179a4	0.019711323
143	0x3d71498f	0.05890804
144	0xbd14cd42	-0.03632856
145	0x3c9e73ad	0.019342268
146	0x3d373995	0.04473265
147	0x3cd8b38d	0.026452804
148	0xbd187f85	-0.037230987
149	0x3f6a90d8	0.91627264
150	0xbe826997	-0.25471184
151	0xbe3a1da0	-0.18175364
152	0x3e0b3f1c	0.13598293
153	0xbd92f3bd	-0.07175396
154	0x3e21c6d8	0.15798509
155	0x3deec719	0.116590686
156	0x3eedcf5b	0.46447262
157	0x3ec3459a	0.3813904
158	0xbda59a47	-0.08086067
159	0xbee5ae8e	-0.44859737
160	0xbdc0264f	-0.09382307
161	0x3def7cd8	0.11693734
162	0xbd972615	-0.073803104
163	0xbb9013c6	-0.0043968884
164	0xbdad61c1	-0.08465911
165	0xbf55b824	-0.834841
166	0x3efbe3f7	0.4919736
167	0x3dc761c9	0.09735448
168	0xbf9f237c	-1.2432704
169	0xbd90be80	-0.07067585
170	0x3c6368e8	0.013879992
171	0x3df3ae2f	0.11898457
172	0x3d19376c	0.03740637
173	0x3c831847	0.016002787
174	0xbd103c32	-0.035213657
175	0xbd77e283	-0.060518753
176	0xbd4365b2	-0.047704406
177	0xbd8c82c6	-0.068608806
178	0x3b7401d7	0.0037232542
179	0xbe774ca6	-0.24150333
180	0x3dfb858f	0.12281334
181	0x4071bdc5	3.7772076
182	0xbbebdaa0	-0.007197693
183	0x3e04df0a	0.12975708
184	0xbb06b27e	-0.0020553167
185	0x3c607706	0.013700252
186	0x3c5259e6	0.012838816
187	0xbcb81a5d	-0.022473508
188	0xbbe797db	-0.007067663
189	0xbc9c46f4	-0.019076802
190	0xbb5579fc	-0.003257393
191	0x3c7bb5be	0.015363155
192	0xbcd97b2b	-0.026547989
193	0xbc46de2f	-0.012137934
194	0x3cb1ef30	0.021720499
195	0x3d1492af	0.0362727
196	0x40066b7b	2.10031
197	0x3d49b260	0.049242377
198	0xbe6bb89b	-0.2301964
199	0x3d249539	0.040181372
200	0x3afe6ff8	0.0019412031
201	0xbc722b63	-0.014780852
202	0xbd908824	-0.07057217
203	0xbcadc9c0	-0.021214366
204	0x3d4608e5	0.048348326
205	0xbda07699	-0.07835121
206	0xbc44c272	-0.01200925
207	0x3d4d9b2e	0.05019682
208	0x3cd39384	0.025827177
209	0xbe09474d	-0.13406105
210	0xbcc69df5	-0.024245242
211	0x3d65c59a	0.05609665
212	0x3cd555de	0.026041921
213	0x3c6da2f1	0.01450418
214	0xbd29a7f0	-0.041419923
215	0xbdabc542	-0.08387233
216	0x3c017431	0.007901237
217	0x3da67d96	0.08129422
218	0x3c98586b	0.018596848
219	0xbd197102	-0.03746129
220	0x3d04a54d	0.032384206
221	0xbcc099b1	-0.023510786
222	0xbd94cf0f	-0.07266056
223	0x3bdd865d	0.006760402
224	0x3fbc90a4	1.4731641
225	0xbf25db44	-0.647877
226	0xbe7cf983	-0.24704556
227	0x3d90edca	0.07076605
228	0xbe3c0b60	-0.18363714
229	0x3d817111	0.06320394
230	0xbd0b37ae	-0.033988647
231	0x3dc16236	0.094425604
232	0x3db3681b	0.08760091
233	0xbd43ce82	-0.047804363
234	0x3d89a3c1	0.06720687
235	0x3a57c488	0.00082308846
236	0xbcd322fa	-0.025773514
237	0x3e8d85b0	0.27641058
238	0x3deb15d6	0.11478774
239	0xbc96e02b	-0.018417438
240	0xbffe7593	-1.9879631
241	0xbd5e4b2b	-0.054270905
242	0xbd0269e0	-0.03183925
243	0xbe3bc5b5	-0.18337138
244	0xbc9058c0	-0.017620444
245	0x3ca7983f	0.020458339
246	0xbcf0a766	-0.029376697
247	0x3d89db66	0.067313
248	0xbcba8fbe	-0.02277362
249	0xbd326dc5	-0.043561716
250	0xbd00f6f6	-0.03148552
251	0xbc1cbed4	-0.009566981
252	0xb9ffc19c	-0.0004878164
253	0xbcf85ed7	-0.03031866
254	0xbc66527b	-0.014057751
255	0xbe9ce19b	-0.30640873

encoder.0.bias f4 [32]
0	0xbebafbd1	-0.36520246
1	0x3d9df796	0.07713239
2	0xbe8805d8	-0.26566958
3	0xbeeec7d9	-0.46636847
4	0x3fef005c	1.8671985
5	0xbda0ea52	-0.07857193
6	0xbf9b6d36	-1.2142704
7	0x3fcc58bc	1.596458
8	0x3fee9894	1.8640313
9	0x3f52b266	0.82303464
10	0xbf220363	-0.6328642
11	0x3db7b797	0.08970564
12	0x3f2eaa09	0.68228203
13	0xbf4e30b6	-0.80543077
14	0x3e9c6fe9	0.3055413
15	0xbf14dea3	-0.58152217
16	0x3ff4630d	1.9092728
17	0x3e395766	0.18099746
18	0xbf2e6269	-0.6811891
19	0x3f95b080	1.1694489
20	0xbffe2c73	-1.9857315
21	0xbeabfa8c	-0.3358959
22	0xbfa18016	-1.2617214
23	0xbf88ff41	-1.0702897
24	0xbf8ead81	-1.1146699
25	0xbf84e74b	-1.0383085
26	0xbda7e55d	-0.081980444
27	0xbfb0d5e4	-1.3815274
28	0x3ffa0fef	1.9536113
29	0x3f6b5318	0.91923666
30	0xbf96ac4a	-1.1771328
31	0x3f2a2e86	0.6647724

encoder.2.weight f4 [32, 32]
0	0x3f1a9a17	0.6039137
1	0xbe79c292	-0.24390629
2	0x3f047428	0.5173974
3	0x3defa93b	0.117022
4	0x3d16f8b6	0.036858283
5	0xc02fee26	-2.7489104
6	0x3e37f94a	0.1796619
7	0xbcf856d7	-0.030314846
8	0xbf112e0c	-0.56710887
9	0xbd1f81ca	-0.038942136
10	0xbf3db0c4	-0.7409785
11	0xbfbc475b	-1.4709276
12	0x3f3f066f	0.7461919
13	0xbff8f255	-1.9448954
14	0xbec021c9	-0.37525776
15	0xbea7de4a	-0.3278678
16	0xbeb6fa3c	-0.3573779
17	0xbee00726	-0.43755454
18	0x3ea51811	0.32244924
19	0xbf541ed7	-0.8285956
20	0xbe245e0e	-0.16051504
21	0x3f24eca3	0.6442358
22	0xbf3e3f35	-0.74315196
23	0x3c821930	0.015881151
24	0x3e20fe9d	0.15722127
25	0xbf029ef8	-0.5102382
26	0x3e845a63	0.2585021
27	0xbe863ba4	-0.26217377
28	0x3dcbedd2	0.0995747
29	0xbf0844e9	-0.5323015
30	0xbf322c12	-0.69598496
31	0xbe308145	-0.17236812
32	0xbe86b51a	-0.26310045
33	0xbe784b7a	-0.24247542
34	0x3e164211	0.1467364
35	0x3f074d7e	0.5285262
36	0x3df20882	0.11818029
37	0xbdd04d67	-0.10171013
38	0xbe276553	-0.16347246
39	0x3bdc228e	0.0067179864
40	0x3f916796	1.1359737
41	0x3e131737	0.14364325
42	0x3e053ce3	0.13011508
43	0x3d60d20c	0.054887816
44	0x3e0adc4f	0.13560604
45	0xbec98c9b	-0.39365086
46	0xbd930d73	-0.071802996
47	0x3e8ca18c	0.27467
48	0x3f50bb7e	0.8153609
49	0x3c4afc67	0.012389279
50	0xbf719023	-0.9436056
51	0x3f80fb5c	1.0076709
52	0xbd0bb4cd	-0.034107972
53	0xbf9dd9ac	-1.2332053
54	0xbde29a21	-0.11064554
55	0xbee60979	-0.44929102
56	0xbd5d814c	-0.054078385
57	0xbcf9c859	-0.030491041
58	0x3eb6f1de	0.35731405
59	0x3ddc56c7	0.10758739
60	0x3e7a8613	0.24465208
61	0x3dc7927e	0.09744738
62	0xbe055498	-0.13020551
63	0x3eacb5cf	0.3373246
64	0x3e864d4d	0.2623085
65	0xbd59a421	-0.05313504
66	0xbe2c8191	-0.168463
67	0xbdd2764b	-0.10276469
68	0x3f0fc8d5	0.5616582
69	0xbee70abb	-0.45125374
70	0x3e507f6f	0.20361112
71	0x3ec97762	0.39348894
72	0x3ec8e0c3	0.3923398
73	0x3dce726e	0.100804195
74	0x3dff8598	0.12476653
75	0x3e3e4935	0.18582614
76	0x3e39555d	0.1809897
77	0x3e5757fc	0.21029657
78	0xbd4b8d29	-0.049695168
79	0x3e1012d1	0.14069678
80	0x3ed12cb4	0.40854418
81	0xbdf3829b	-0.118901454
82	0x3e991065	0.2989532
83	0x3e720d82	0.23637965
84	0xbed1f15d	-0.41004458
85	0xbeeaa475	-0.45828596
86	0xbfb3a3dd	-1.4034382
87	0xbf6effac	-0.93358874
88	0xbe96d53f	-0.2945957
89	0xbfb6ab99	-1.4271117
90	0xbd3f5da9	-0.04672018
91	0xbda8965b	-0.08231803
92	0x3ea1f0f1	0.31629136
93	0xbd6ad800	-0.0573349
94	0xbf4953f2	-0.78643715
95	0x3e2b6a34	0.16739732
96	0xbf653722	-0.8953725
97	0x3e9c463d	0.30522338
98	0xbfb7ac37	-1.4349431
99	0xbeb86dab	-0.3602117
100	0x3e94368d	0.2894787
101	0x3edced5f	0.4314985
102	0xbf36100d	-0.7111824
103	0x3e17a6ca	0.14809719
104	0x3f1e79b1	0.61904436
105	0x3e0e835e	0.139173
106	0xbbfca48d	-0.0077100457
107	0xbeffca83	-0.49959192
108	0xbe59fc25	-0.21287592
109	0x3c6e2807	0.01453591
110	0xbd69cfb9	-0.057082865
111	0xbe115908	-0.14194119
112	0x3e88f774	0.26751292
113	0xbc6bd0de	-0.01439306
114	0xbf32900b	-0.6975104
115	0x3f823ee4	1.0175443
116	0xbf2dbfb0	-0.67870617
117	0xbffd52c3	-1.9790882
118	0xbf368461	-0.71295744
119	0xbf11400c	-0.5673835
120	0xbf4f7338	-0.81035185
121	0xbed799db	-0.4210957
122	0xbfcd95e0	-1.6061363
123	0xbc86d793	-0.016460216
124	0x3f0989e2	0.5372602
125	0xbde270bc	-0.110566586
126	0xbf443af5	-0.7665246
127	0xbd93e302	-0.07221033
128	0x3f1aa115	0.6040204
129	0x3e1f2b5b	0.15543883
130	0x3f4da543	0.80330294
131	0x3f6d6f62	0.9274808
132	0xbe1ddf53	-0.15417223
133	0x3ee0c449	0.43899754
134	0xbe3a287d	-0.18179508
135	0xbad6893d	-0.0016367804
136	0xbf7b68a4	-0.98206544
137	0x3eb21f3c	0.34789455
138	0xbdd4f96b	-0.10399135
139	0x3ee5efce	0.4490952
140	0x3e0ac160	0.13550329
141	0xbe9fb42b	-0.31192145
142	0xbe9bb4f7	-0.30411503
143	0x3d2270a2	0.039658196
144	0xbf8d92f4	-1.1060472
145	0x3e14171c	0.1446194
146	0x3e8f4ed9	0.27989843
147	0xbe78e782	-0.24307063
148	0xbe9d18d5	-0.30683008
149	0xbe833152	-0.25623566
150	0x3f0ee7b8	0.55822325
151	0x3e95a114	0.29224455
152	0xbe26ec7c	-0.16301149
153	0xbdba40db	-0.090944014
154	0x3f38e04b	0.72217244
155	0x3edf1463	0.4357024
156	0xbecf4139	-0.40479448
157	0xbd730de8	-0.059339434
158	0x3ee40d04	0.4454118
159	0x3ed4b9cc	0.41548002
160	0xbe0c5457	-0.13704048
161	0xbed6b96b	-0.41938338
162	0xbe8dcdcf	-0.27696082
163	0x3ddc17a3	0.10746696
164	0x3f0e97ba	0.55700266
165	0xbf8dca22	-1.1077311
166	0x3e6a363d	0.22872253
167	0x3eb97cb7	0.36227962
168	0x3f67c296	0.9053129
169	0x3ee1eb3e	0.44124788
170	0x3e23eb33	0.1600769
171	0xbe9e09e7	-0.3086693
172	0x3ec7643a	0.38943654
173	0xbf576500	-0.8413849
174	0xbec199bb	-0.378126
175	0x3ba28f50	0.004960932
176	0x3f587202	0.8454896
177	0x3cdec80f	0.027195005
178	0xbf6056d2	-0.8763248
179	0x3e2050f0	0.15655875
180	0xbcddac75	-0.027059773
181	0xbf8d04b7	-1.1017064
182	0xbf618fcc	-0.8811004
183	0xbf9ae4dc	-1.2101092
184	0xbe7b43a3	-0.2453752
185	0xbf0dc997	-0.55385727
186	0xbd6b12f1	-0.05739111
187	0xbeb1d86f	-0.34735438
188	0x3f3571a4	0.70876527
189	0x3ea32535	0.31864324
190	0xbf4e4c19	-0.80584866
191	0x3e018515	0.12648423
192	0xbf5057fb	-0.8138425
193	0x3e3f3d5d	0.18675752
194	0xc03fdf5f	-2.9980085
195	0xbe920ec2	-0.28526884
196	0xbd4bde4c	-0.049772546
197	0x3e0bf4ec	0.13667649
198	0xbe1bc525	-0.15211923
199	0x3e71f763	0.23629527
200	0x3ed5dcaa	0.41769916
201	0xbe5b7bf9	-0.2143401
202	0xbde5a7a6	-0.11213617
203	0xbe319691	-0.17342593
204	0x3d88c349	0.06677873
205	0x3e8b6ca3	0.2723132
206	0x3ef41d80	0.47678757
207	0x3e558178	0.2085017
208	0x3ec46537	0.3835847
209	0xbd3801b3	-0.044923496
210	0xbd745656	-0.05965265
211	0xbe4989bc	-0.19681448
212	0xbcd84ceb	-0.026403865
213	0xc094b446	-4.647006
214	0x3eb4a66d	0.35283223
215	0xbe60c0ab	-0.21948497
216	0xbd55155f	-0.052022334
217	0x3dd1bdf1	0.102413066
218	0xc033de20	-2.8104324
219	0x3f17f61f	0.59359926
220	0xbe31ee05	-0.17375953
221	0x3e118ac9	0.14213099
222	0x3e68d8b9	0.22738923
223	0xbec2248c	-0.37918508
224	0xbf771ea5	-0.96531135
225	0xbeeafe2b	-0.4589704
226	0xbe72fde4	-0.23729664
227	0x3c654009	0.013992318
228	0x3df9171f	0.12162613
229	0xbeeb0a48	-0.4590628
230	0x3e8119f3	0.2521511
231	0x3d0c91e3	0.034318816
232	0x3ed75179	0.42054346
233	0xbb518b6d	-0.0031973973
234	0xbe0c3e2b	-0.1369559
235	0x3ec35350	0.381495
236	0x3dffbf0c	0.12487611
237	0xbd5566e2	-0.05210007
238	0xbcafda94	-0.02146653
239	0xbdf468f5	-0.119340815
240	0x3f104aac	0.5636394
241	0xbdd281dd	-0.10278676
242	0xbf8fec94	-1.1244073
243	0x3f4a5c9d	0.79047567
244	0x3ea114b9	0.31461123
245	0xbf0bf544	-0.5467112
246	0xbf99bee7	-1.2011384
247	0xbf27ce4b	-0.65549153
248	0xbf26097c	-0.6485822
249	0xbf6f0f06	-0.933823
250	0xbd6d5040	-0.05793786
251	0xbf3fd9cc	-0.74941707
252	0x3ee8aea5	0.45445743
253	0x3d062e64	0.032759085
254	0xbf70054b	-0.93758076
255	0x3ef30f0e	0.47472423

encoder.2.bias f4 [32]
0	0xbced7b22	-0.028989378
1	0x3f64a84c	0.893193
2	0x3f4e5f2e	0.8061398
3	0x3f8556f3	1.041716
4	0xbdaa15b3	-0.0830492
5	0x3f82398f	1.0173815
6	0x3e089ba6	0.13340625
7	0x3f20a9fd	0.6275938
8	0xbf96959d	-1.1764408
9	0xbe90eed9	-0.28307226
10	0xbdfb8e35	-0.12282983
11	0x3f173093	0.59058493
12	0x3e7193e3	0.2359157
13	0x3f037a83	0.51358813
14	0xbd877448	-0.06613976
15	0x3efd5ad2	0.49483353
16	0x3cf6164c	0.030039929
17	0x3da5e545	0.0810037
18	0xbfd62828	-1.6731005
19	0x3d8cc9ee	0.068744525
20	0xbeea8035	-0.4580094
21	0x3f98cfa6	1.1938369
22	0xbe9678bc	-0.29388988
23	0xbdddd9b3	-0.108325385
24	0xbe800803	-0.25006112
25	0xbf3a92ef	-0.7288045
26	0x3e86e8f0	0.26349592
27	0x3f30daca	0.69083846
28	0xbfc34bb4	-1.5257478
29	0xbfa52c8d	-1.2904221
30	0x3f27c308	0.6553197
31	0x3e6c73e4	0.23091084

decoder.0.weight f4 [32, 32]
0	0x3e3e063d	0.18557067
1	0x3b1af727	0.002364585
2	0x3ea011c7	0.31263563
3	0xbdb03659	-0.08604116
4	0xbdb7d1e5	-0.08975581
5	0xbdee2fd7	-0.116302185
6	0x3dc6abc2	0.09700729
7	0x3e58a2c1	0.21155836
8	0x3df32c69	0.11873705
9	0xbe029fd2	-0.12756279
10	0xbfaed559	-1.3658859
11	0xbf3d5ad1	-0.739667
12	0xbe540c36	-0.20707783
13	0x3e3c3f5c	0.18383545
14	0xbdd2be05	-0.102901496
15	0x3bd5f847	0.006529841
16	0xbdd001b1	-0.101565726
17	0x3ec03c13	0.37545833
18	0xbe0f5b94	-0.13999778
19	0x3eb55f5a	0.3542431
20	0x3e96da7b	0.29463562
21	0x3dcf850e	0.101328
22	0x3e5c5435	0.21516497
23	0x3d87a058	0.0662238
24	0xbd3562ae	-0.04428356
25	0xbfc2be99	-1.5214416
26	0x3ece392c	0.40277994
27	0xbe7f27bf	-0.24917506
28	0xbd8c3169	-0.06845362
29	0x3e2afbe8	0.16697657
30	0x3e78ed8d	0.24309368
31	0x3e87f744	0.26555836
32	0xbd92c222	-0.07165934
33	0x3eef425e	0.46730322
34	0x3e1bc422	0.15211537
35	0xbe343a74	-0.17600423
36	0x3e136868	0.14395297
37	0x3e13ac5d	0.1442122
38	0x3e4378e8	0.19089091
39	0x3e43827f	0.19092749
40	0x3f1321f7	0.574737
41	0xbdee61db	-0.11639758
42	0xbeee7587	-0.4657404
43	0xbe35281f	-0.17691086
44	0xbe452d0f	-0.1925547
45	0x3c6feaa1	0.014643342
46	0x3e3e80ce	0.18603823
47	0x3e919be3	0.28439245
48	0x3df108e7	0.11769276
49	0x3e2a7927	0.16647778
50	0x3e11d941	0.14243032
51	0x3ebe6d0b	0.37192568
52	0x3ebb93e8	0.3663628
53	0x3e2f97ed	0.17147799
54	0x3d33ba4f	0.04387885
55	0x3cba1702	0.02271605
56	0x3d11a93a	0.035561778
57	0xbecf68f5	-0.40509763
58	0x3dcd98e8	0.1003893
59	0x3d49db9a	0.049281694
60	0x3d08b05b	0.03337131
61	0x3d804dbe	0.06264828
62	0x3ea09495	0.3136336
63	0x3e375109	0.17902006
64	0x3ea12401	0.3147278
65	0xbe75d874	-0.24008352
66	0xbe342372	-0.17591646
67	0xbde2e984	-0.11079696
68	0x3f018d19	0.5060592
69	0xbc49f87c	-0.01232731
70	0xbf8b4f63	-1.0883602
71	0xbe2afc4f	-0.1669781
72	0x3df1fcd3	0.118158005
73	0xbd8a89c4	-0.06764558
74	0x3e4fd93e	0.20297715
75	0x3ed06955	0.40705362
76	0x3d0e7a0e	0.03478437
77	0x3eac6e27	0.3367779
78	0xbf01712b	-0.50563306
79	0x3f96ec4d	1.1790863
80	0x3e82106c	0.25403154
81	0xbe773a0e	-0.2414324
82	0x3d42495e	0.04743325
83	0x3eb62590	0.35575533
84	0x3f606c26	0.8766502
85	0xbe89dd45	-0.26926628
86	0xbf75751d	-0.95881826
87	0x3e4433e8	0.19160426
88	0xbe8295e9	-0.25504997
89	0x3e2d7b9a	0.16941682
90	0xbcbd7b6b	-0.02313014
91	0x3d9e5983	0.07731917
92	0x3f354a8a	0.7081686
93	0x3d8f53f3	0.06998434
94	0x3effba33	0.49946746
95	0xbea95917	-0.33075783
96	0xbe4f1615	-0.20223267
97	0xbf15e19b	-0.5854737
98	0x3cd614c5	0.02613295
99	0xbdd0a551	-0.101877816
100	0x3e3434f3	0.17598324
101	0x3b99346b	0.004675438
102	0xbf46366a	-0.7742678
103	0xbd7f072b	-0.062262695
104	0xbe902417	-0.28152534
105	0xbe1f4660	-0.1555419
106	0x3e209f16	0.15685686
107	0x3ed8ee30	0.42369223
108	0x3dc76705	0.09736446
109	0xbda4fa9c	-0.080556124
110	0x3dfde2eb	0.12396797
111	0xbd2102fd	-0.03930949
112	0xbe0a3577	-0.13496958
113	0x3e62dd80	0.22154808
114	0x3e1f1300	0.15534592
115	0x3dd39e88	0.10332972
116	0xbefad0bc	-0.48987377
117	0xbd27bfba	-0.04095433
118	0x3d0a8209	0.033815417
119	0xbe840a56	-0.25789136
120	0x3d8d4392	0.06897654
121	0x3df12fe9	0.11776716
122	0xbec69bbe	-0.38790697
123	0xbdddde33	-0.10833397
124	0xbe8a9b02	-0.27071387
125	0xbe93ef63	-0.28893575
126	0x3e92dfca	0.28686363
127	0x3ea89cfa	0.32932264
128	0xbfd2c89c	-1.6467471
129	0xbefb0acf	-0.49031684
130	0xbf096eea	-0.53684866
131	0xbfe7d4ff	-1.8111876
132	0x3f713eb4	0.942363
133	0xbf9bebba	-1.2181313
134	0xbfda3727	-1.7048081
135	0xbf74516d	-0.95436746
136	0xbf61e2a6	-0.88236463
137	0xbed3d0d2	-0.41370255
138	0x3e233399	0.15937652
139	0x3fd534d7	1.665675
140	0xbf4fa50d	-0.8111122
141	0xbd5c0d2e	-0.053723507
142	0xbf94e9de	-1.1633871
143	0x3e04f41e	0.12983748
144	0x3eaf17ad	0.3419775
145	0x3d7fc34f	0.06244212
146	0xc0270663	-2.6097648
147	0x3f6eea2a	0.93326056
148	0x3d124bb1	0.035716716
149	0xbf8227d9	-1.016841
150	0x3e946ecd	0.28990784
151	0xbd7ed3b9	-0.062213633
152	0x3e21073b	0.15725414
153	0x3e87fced	0.26560155
154	0xbf13a225	-0.5766929
155	0xbf23ece1	-0.64033324
156	0x3eabb004	0.33532727
157	0xbf3d1194	-0.7385495
158	0x3e1d932b	0.15388171
159	0x3e47c915	0.195103
160	0xbe748573	-0.23879032
161	0xbf2098cd	-0.62733155
162	0x3f96dcb5	1.1786104
163	0xbeb2eec2	-0.34947783
164	0x3e085db1	0.1331699
165	0xbee7b594	-0.4525572
166	0x3eafc60c	0.34330785
167	0x3f02e58f	0.5113153
168	0x3ef07127	0.46961328
169	0xbe9c681f	-0.30548188
170	0x3e02dc5d	0.12779374
171	0x3ec6bd2e	0.38816208
172	0x3d9f9b1e	0.07793258
173	0xbda8fa58	-0.08250874
174	0x3e5ccbf3	0.21562175
175	0xbec62720	-0.38701725
176	0xbf764a39	-0.96207005
177	0x3fa8d134	1.3188844
178	0x3ecb1683	0.39665613
179	0x3f939ad4	1.1531625
180	0x3dcb51bc	0.09927699
181	0x3ec54756	0.38530988
182	0x3ead5d97	0.33860466
183	0xbe22cdb7	-0.15898786
184	0x3f70be44	0.9404032
185	0x3dc4c9e4	0.0960882
186	0x3edfc920	0.43708134
187	0xbe36f2c6	-0.17866048
188	0x3e816243	0.2527028
189	0x3d0cad96	0.034345232
190	0xbe5eba87	-0.21750842
191	0x3febb08f	1.8413256
192	0xbfaf0cd1	-1.3675786
193	0xbeca0e0e	-0.39463848
194	0xbee9c364	-0.45656884
195	0xbfc25ea1	-1.5185128
196	0x3f49801f	0.7871112
197	0xbf7a1cc4	-0.9770014
198	0xbfb191d0	-1.3872623
199	0xbf5f59c5	-0.8724635
200	0xbf4c915c	-0.799093
201	0xbeb124fb	-0.34598526
202	0x3e069143	0.1314135
203	0x3fb4c83f	1.412361
204	0xbf2b91e3	-0.6701948
205	0xbd3828ff	-0.044960972
206	0xbf78d523	-0.9720022
207	0x3e054c5e	0.13017413
208	0x3e85ad46	0.2610876
209	0x3d7684c5	0.060185213
210	0xc00e73f3	-2.225827
211	0x3f43927d	0.763954
212	0x3c7ebca6	0.015547907
213	0xbf5ff5a1	-0.87484175
214	0x3e6bfd35	0.2304581
215	0xbd60651e	-0.054783933
216	0x3da04347	0.07825332
217	0x3e6a0569	0.22853626
218	0xbef242f2	-0.473167
219	0xbf074c9f	-0.5285129
220	0x3ea48412	0.32132012
221	0xbeeb7a7e	-0.45991892
222	0x3dde5407	0.10855871
223	0x3e1c12c7	0.15241538
224	0xbfd5d099	-1.6704284
225	0xbeeffec4	-0.46874058
226	0xbf077ad2	-0.52921784
227	0xbfe544cc	-1.791162
228	0x3f72e07d	0.9487379
229	0xbf9a9732	-1.2077391
230	0xbfd762bf	-1.682701
231	0xbf76ac0a	-0.9635626
232	0xbf52454d	-0.82136995
233	0xbeeb3b9f	-0.45943925
234	0x3e0abdf0	0.13549018
235	0x3fd240f7	1.6426076
236	0xbf4aa021	-0.7915059
237	0xbd83952a	-0.06424935
238	0xbf948f00	-1.160614
239	0x3e2560d4	0.16150218
240	0x3eaa214e	0.33228534
241	0x3da95b1b	0.0826933
242	0xc0260dfe	-2.594604
243	0x3f6e73fe	0.9314574
244	0xbb47660b	-0.0030425813
245	0xbf8663da	-1.0499222
246	0x3e9cd3e8	0.30630422
247	0xbcc41052	-0.023933563
248	0x3e20a0f8	0.15686405
249	0x3e905268	0.2818787
250	0xbf1357c0	-0.5755577
251	0xbf219f70	-0.6313391
252	0x3ec6159e	0.38688368
253	0xbf2639cb	-0.64931935
254	0x3e04f333	0.12983398
255	0x3e392796	0.18081507

decoder.0.bias f4 [32]
0	0x3db26196	0.08710019
1	0x3f122d88	0.57100725
2	0xbe6df5b2	-0.23238257
3	0x3ca1c1b9	0.019745694
4	0x3e8df84a	0.27728492
5	0xbebda394	-0.37038863
6	0x3e08bcfd	0.13353343
7	0x3e18d6df	0.14925717
8	0xbdb6f4f8	-0.08933443
9	0xbe9c625c	-0.30543792
10	0xbec577eb	-0.38568053
11	0x3e17e28a	0.14832512
12	0xbe99434f	-0.29934165
13	0xbf3a65c8	-0.72811556
14	0x3e2f7c16	0.17137179
15	0xbe9c47e5	-0.305236
16	0xbe09fc07	-0.13475047
17	0xbd1ecf01	-0.038771633
18	0xbdfd342d	-0.12363467
19	0xc000b0f4	-2.0108004
20	0xbdb6e373	-0.08930101
21	0xbd37d96b	-0.04488508
22	0xbf0173fb	-0.505676
23	0xbe9a9386	-0.30190676
24	0xbe335171	-0.17511536
25	0xbe713ef8	-0.23559177
26	0xbf47e9c3	-0.7809107
27	0x3dccac34	0.09993783
28	0x3d27571b	0.040854555
29	0x3c925590	0.017863065
30	0xbe7f7f58	-0.24950922
31	0x3e91af75	0.28454176

decoder.2.weight f4 [15, 32]
0	0xbc244f1a	-0.010028625
1	0xbd9abfe9	-0.07556135
2	0x3e187874	0.14889699
3	0xbdd1c6e1	-0.10243011
4	0x40365b1a	2.8493104
5	0x3d287852	0.04113037
6	0x40092b8c	2.143283
7	0x403fe982	2.9986272
8	0x3df17ab6	0.117909834
9	0x3dede248	0.11615425
10	0xbe957125	-0.29187885
11	0xbd63ce68	-0.055616766
12	0xbf9b4301	-1.2129823
13	0xbe1bbeb2	-0.15209463
14	0xbe36eb75	-0.17863257
15	0xbcacbb04	-0.02108527
16	0xbcd5dd30	-0.026106447
17	0x3e42dac8	0.19028771
18	0xbf3f3783	-0.7469408
19	0xbfeab1bf	-1.8335494
20	0x3f3190ba	0.6936146
21	0x3e55110d	0.20807286
22	0x3e447334	0.19184572
23	0x3ca31897	0.019909186
24	0xbf12c6d8	-0.5733466
25	0x3f049b81	0.5179978
26	0xbc48e30b	-0.0122611625
27	0xbeb485e9	-0.35258415
28	0x3e9ba63a	0.30400258
29	0xbe04d26c	-0.12970895
30	0x3f8c8850	1.0979099
31	0x3ce679d5	0.028134266
32	0xbfb26804	-1.3937993
33	0xbe9a1115	-0.30091158
34	0x3d11a214	0.03555496
35	0xbe099ff0	-0.13439918
36	0x4062be72	3.5428739
37	0x3c450693	0.012025493
38	0x40481c36	3.1267219
39	0x405cb23b	3.4483783
40	0x3fd45199	1.6587402
41	0xbdb28123	-0.08716037
42	0x3e2325fe	0.15932462
43	0xbb20319a	-0.0024443627
44	0xbd244b2d	-0.040110756
45	0xbfc55f30	-1.5419674
46	0xbd69b92c	-0.05706136
47	0x3eab48e8	0.3345406
48	0xbe3012c1	-0.17194654
49	0xbddb8e7d	-0.10720537
50	0x3d8e226d	0.0694016
51	0xbf38f71b	-0.72252053
52	0x3f65c2f2	0.8975059
53	0x3cbd49f8	0.02310656
54	0x3e17285e	0.14761493
55	0x3ec300b5	0.38086477
56	0xbd6ba161	-0.05752695
57	0xbe1cb5d0	-0.15303731
58	0x3fd8db85	1.6941992
59	0xbe15b47a	-0.14619628
60	0x3e2ddc0a	0.1697847
61	0xbe9c512d	-0.30530682
62	0xbd0839e6	-0.03325834
63	0xbd0ef648	-0.03490284
64	0xbe82837b	-0.25490937
65	0xbd380a7e	-0.04493188
66	0x3e21fcad	0.15819044
67	0xbe981a57	-0.29707596
68	0x3f282a57	0.65689605
69	0xc05c46cf	-3.4418218
70	0x3f13fcd6	0.5780767
71	0x3f31dce2	0.69477665
72	0x3e55e17c	0.20886797
73	0xbe7b292f	-0.24527429
74	0x3b170875	0.0023045812
75	0xbd8eaf8b	-0.06967076
76	0xbe5e58ff	-0.21713637
77	0xbed84deb	-0.42246947
78	0xbea36116	-0.31910008
79	0xbc9000b5	-0.017578462
80	0x3e8fa319	0.2805412
81	0xbbba57d9	-0.005686742
82	0x3d8cf59e	0.06882785
83	0xbf68e548	-0.90974855
84	0x4009281b	2.1430728
85	0x3db9f932	0.09080733
86	0x3f1844b5	0.5947984
87	0xbf100f0f	-0.5627298
88	0xbe61938c	-0.22028941
89	0xbf01817f	-0.5058822
90	0x3e26911e	0.16266295
91	0xbe469741	-0.19393636
92	0x3e2e184c	0.17001456
93	0x3f04c553	0.5186359
94	0x3b177792	0.002311204
95	0xbee4848f	-0.44632384
96	0xbc4a3925	-0.012342726
97	0xbda76511	-0.08173574
98	0x3e0e73ea	0.13911405
99	0xbde546c9	-0.11195142
100	0x4048aed3	3.1356704
101	0x3d22720c	0.039659545
102	0x400ac9a6	2.1685576
103	0x403e3169	2.9717658
104	0x3de65a28	0.11247665
105	0xbf9aba29	-1.2088062
106	0x3f6fca98	0.9366851
107	0xbd590ee0	-0.0529927
108	0x3e440c0c	0.1914522
109	0xbe198fd8	-0.14996278
110	0xbe17d290	-0.14826417
111	0xbd205bd3	-0.03915007
112	0xbd4a2e7c	-0.049360737
113	0x3e442f78	0.19158733
114	0xbf5ea5fb	-0.86972016
115	0xbfec9dbc	-1.8485637
116	0x3f2c035c	0.67192626
117	0x3e4d4aec	0.20048112
118	0x3e44ea46	0.19229993
119	0x3c9365de	0.01799291
120	0xbf6b7bf9	-0.9198604
121	0x3ec697c8	0.38787675
122	0x3a62133c	0.0008624082
123	0xbeca5589	-0.39518383
124	0x3e985253	0.29750308
125	0xbe10806e	-0.14111492
126	0x3c152cd7	0.009104929
127	0x3ccc8ade	0.02496856
128	0xbd3d3ad8	-0.046198696
129	0xbf32f404	-0.6990359
130	0xbf0c56b1	-0.5481978
131	0xbc0f4d1f	-0.008746414
132	0xbd28dbbe	-0.041225187
133	0xbe934c5a	-0.2876919
134	0xbd0e027f	-0.03467035
135	0xbd27c3dd	-0.040958274
136	0xbc0627d7	-0.0081882095
137	0xbcbc602a	-0.022995073
138	0xbb5171d9	-0.0031958728
139	0xbf03be58	-0.51462317
140	0xbc3df29a	-0.011593485
141	0xbd98af8f	-0.0745536
142	0xbc0f02f5	-0.008728732
143	0xbf8082ab	-1.0039877
144	0xbc387742	-0.011258902
145	0xbbb1ea98	-0.005429577
146	0xbcebe8de	-0.028797563
147	0x39fbe3ff	0.0004804432
148	0xbd10c1c1	-0.035341028
149	0xbdb9f68e	-0.0908023
150	0xbcfeb04d	-0.031089926
151	0xbd545448	-0.05183819
152	0xbcdebcf6	-0.027189713
153	0xba7a9ad4	-0.00095598144
154	0xbcfaf6b1	-0.03063521
155	0xbdb2a20b	-0.087223135
156	0xbc4b0050	-0.012390211
157	0xbc085b61	-0.008322568
158	0xb7ab0f79	-2.0391994e-05
159	0xbea5b18b	-0.32362017
160	0xbd293d4c	-0.041318223
161	0xbf1bed53	-0.60909003
162	0xbefab879	-0.48968866
163	0xbbd92420	-0.006626621
164	0xbd003923	-0.03130449
165	0xbe88f00d	-0.26745644
166	0xbcd59a25	-0.026074478
167	0xbcfe8583	-0.031069523
168	0xbba0fa7f	-0.004912674
169	0xbc267b45	-0.010161226
170	0xbb55d135	-0.0032625918
171	0xbee07cd2	-0.4384523
172	0xbc6785dc	-0.014131036
173	0xbd69c139	-0.057069037
174	0xbc0dd8a9	-0.008657613
175	0xbf613e7f	-0.87985986
176	0xbc563c56	-0.013075909
177	0xbb9d3653	-0.0047977357
178	0xbcdf2750	-0.027240425
179	0x39c35348	0.00037255348
180	0xbcdc86a0	-0.026919663
181	0xbda4044e	-0.080086336
182	0xbcf63858	-0.030056164
183	0xbd4cc3a7	-0.049991276
184	0xbc891b00	-0.016736507
185	0xb9adcd80	-0.0003315024
186	0xbceabd79	-0.0286548
187	0xbd9533aa	-0.07285245
188	0xbc246485	-0.010033731
189	0xbc03cf9b	-0.0080451025
190	0x38dc2012	0.00010496391
191	0xbe990d4b	-0.29892954
192	0xbd24cab7	-0.040232386
193	0xbf22cf1a	-0.6359726
194	0xbf023098	-0.508554
195	0xbb827dc2	-0.0039822767
196	0xbd33c32b	-0.0438873
197	0xbe8b4e6a	-0.27208263
198	0xbd187b9e	-0.037227266
199	0xbd3226f7	-0.04349419
200	0xbbaa6c4a	-0.0052008973
201	0xbc59d9a5	-0.013296519
202	0xbaffc9b3	-0.0019515067
203	0xbeea2943	-0.45734605
204	0xbc69d169	-0.014271119
205	0xbd7b8cf7	-0.06141373
206	0xbc0c4a1d	-0.008562592
207	0xbf68ab01	-0.9088593
208	0xbc24ee3e	-0.010066567
209	0xbb9ebf50	-0.0048445836
210	0xbcd6cb59	-0.02622001
211	0xb92dff65	-0.00016593708
212	0xbd1bbb8e	-0.038020663
213	0xbda83ea8	-0.08215076
214	0xbd025543	-0.031819593
215	0xbd5761a2	-0.052583344
216	0xbc93b0a3	-0.018028563
217	0xb9e50dc6	-0.00043688546
218	0xbced3f8f	-0.028960971
219	0xbd967854	-0.073471695
220	0xbc3cdde8	-0.011527516
221	0xbbec3f21	-0.007209674
222	0xb9265406	-0.00015862295
223	0xbe9d6389	-0.30740002
224	0xbd2ecb35	-0.042674262
225	0xbf1f36ec	-0.6219318
226	0xbefb21cd	-0.49049225
227	0xbbbf27a7	-0.0058335843
228	0xbd17f6ca	-0.03710059
229	0xbe851e3f	-0.25999638
230	0xbcfecf84	-0.03110481
231	0xbd168ff4	-0.03675838
232	0xbb9d071b	-0.004792107
233	0xbc90780c	-0.017635368
234	0xbb4df1bd	-0.0031424605
235	0xbee45072	-0.44592625
236	0xbc62cf19	-0.013843321
237	0xbd818d8f	-0.06325828
238	0xbc1d5c5c	-0.00960454
239	0xbf64a850	-0.89319324
240	0xbc3ccb99	-0.011523151
241	0xbb8f3396	-0.004370163
242	0xbccc83e8	-0.024965242
243	0x3a158fe1	0.00057053386
244	0xbd00f7ff	-0.031486508
245	0xbda751d1	-0.08169902
246	0xbcfc3143	-0.030785209
247	0xbd481c25	-0.048854966
248	0xbc99b2e0	-0.018762052
249	0xba743ae2	-0.00093166356
250	0xbcd86528	-0.026415423
251	0xbd971e4a	-0.07378824
252	0xbc2bdaa0	-0.010489136
253	0xbbf06e58	-0.0073373728
254	0xb8ed44ec	-0.00011313878
255	0xbe9c4ed2	-0.30528885

decoder.2.bias f4 [15]
0	0xbf3516d9	-0.7073799
1	0xbf725093	-0.94654197
2	0xbeeffe96	-0.4687392
3	0xbf2d0a9c	-0.67594314
4	0xbe36e19e	-0.17859504
5	0xbe1c9e15	-0.15294679
6	0xbe22b634	-0.15889817
7	0xbe1bec91	-0.15226962
8	0xbe17c300	-0.1482048
9	0xbe1c8285	-0.15284164
10	0xbe26b431	-0.16279675
11	0xbe1bcaf7	-0.15214144
12	0xbe21f1a2	-0.15814832
13	0xbe394ef5	-0.18096526
14	0xbe291cd0	-0.16514897
